data.pth (torch, 6954 bytes, 6 tensors)

l1.weight f4 [8, 81]
0	0x3e751564	0.23933941
1	0x3e3aa15c	0.18225616
2	0x3f4ff57a	0.8123394
3	0xbe17d49f	-0.14827202
4	0xbdb8677d	-0.09004114
5	0x3eb594b8	0.35465026
6	0x3f769e5d	0.96335393
7	0xbcdf2aea	-0.027242143
8	0x3ef4a113	0.4777914
9	0xbdb5c409	-0.08875281
10	0xbf2c0eff	-0.6721038
11	0xbe2dcaf5	-0.16971953
12	0x3ea96586	0.3308527
13	0x3ed16ce3	0.40903386
14	0x3c5b4d90	0.013385192
15	0x3e735d76	0.23766121
16	0x3e7e100e	0.24810812
17	0x3faace6b	1.3344244
18	0xbeb0dfa3	-0.3454562
19	0xbf282099	-0.6567474
20	0x3e88cb5c	0.2671765
21	0x3ea8b472	0.3295017
22	0x3e9cb4dc	0.30606735
23	0x3d205716	0.03914555
24	0x3eda42ef	0.4262919
25	0xbedceba8	-0.4314854
26	0x3e96ef64	0.29479516
27	0x3f235c31	0.6381255
28	0x3e368570	0.1782434
29	0xbf0e30a4	-0.5554297
30	0x3e1f526c	0.15558785
31	0x3e8c8ad4	0.27449667
32	0xbf042e2b	-0.51632947
33	0xbe1543ad	-0.14576598
34	0x3f869459	1.0514022
35	0x3fcff2a0	1.6245918
36	0xbf183694	-0.5945828
37	0xbf37e06d	-0.7182682
38	0x3d7963d8	0.060886234
39	0x3efcc1af	0.4936652
40	0x3e17f231	0.14838482
41	0x3e5dcb88	0.21659672
42	0xbe3d191c	-0.1846661
43	0xbddcd32e	-0.10782467
44	0x3ea74caa	0.32675678
45	0xbd9e1137	-0.07718127
46	0x3ec5b8dd	0.38617602
47	0x3ed3d6d6	0.41374844
48	0x3ca019b2	0.019543502
49	0xbd606804	-0.054786697
50	0x3df0ce53	0.11758103
51	0xbe5f684a	-0.21817127
52	0xbe5933e9	-0.21211208
53	0xbf183079	-0.59448963
54	0x3e314229	0.17310394
55	0x3ec43561	0.38321975
56	0xbf76e506	-0.9644321
57	0x3f6177fb	0.880737
58	0xbf250084	-0.6445391
59	0x3f031a63	0.5121214
60	0x3c87733a	0.016534436
61	0x3e939fc5	0.28832832
62	0x3ce55264	0.027993388
63	0x3e7c2408	0.2462312
64	0x3f0921c3	0.5356714
65	0x3d83532f	0.064123504
66	0x3ec1c784	0.3784753
67	0x3e1c3636	0.15255055
68	0xbe211d93	-0.15733938
69	0x3f8a182d	1.0788628
70	0xbe2b4e01	-0.16728975
71	0x3e8cc534	0.27494204
72	0xbe1aa555	-0.15102132
73	0x3ed62cdd	0.41831103
74	0x3ef7a6dd	0.48369494
75	0xbf25645c	-0.6460626
76	0x3f0edec7	0.5580868
77	0xbf007178	-0.5017314
78	0xbf4b1a34	-0.7933686
79	0x3ecb98da	0.39765054
80	0xbf390d72	-0.7228614
81	0xbe26e12b	-0.16296832
82	0x3d6fa035	0.058502395
83	0xbe8a51ba	-0.27015477
84	0x3e92aa60	0.2864561
85	0x3d92de8b	0.07171353
86	0xbf3a96cd	-0.72886354
87	0x3eefdafb	0.46846756
88	0x3cdcc549	0.026949542
89	0x3f195051	0.5988818
90	0xbe28e8e8	-0.16495097
91	0xbeeef4e7	-0.4667122
92	0xbf04f994	-0.51943326
93	0x3f491b94	0.78557706
94	0xbe401a7c	-0.18760103
95	0x3f5de76c	0.86681247
96	0xbe96ddde	-0.29466146
97	0x3f3153e1	0.69268614
98	0xbf2207d9	-0.63293225
99	0x3e271e13	0.16320066
100	0xbe50e64f	-0.20400356
101	0x3e6d5236	0.23175892
102	0x3f392d63	0.7233488
103	0x3e9fbfe1	0.3120108
104	0x3c8ef26f	0.017449586
105	0x3e8f4e94	0.27989638
106	0x3f7dad40	0.99092484
107	0x3dc425c2	0.09577514
108	0x3f4f94fa	0.81086695
109	0x3b2deba4	0.0026538158
110	0xbef3a05d	-0.47583285
111	0x3d579bc8	0.0526388
112	0x3dd44c6e	0.1036614
113	0x3f59fe79	0.8515392
114	0x3d56c8cc	0.05243759
115	0xbe14286e	-0.14468548
116	0xbef55e5c	-0.47923553
117	0x3f0a4ffe	0.5402831
118	0x3ee9dc9a	0.45676118
119	0x3ece444e	0.40286487
120	0x3f22470f	0.63389677
121	0x3f29d611	0.66342264
122	0xbe100777	-0.14065348
123	0xbf0a45f8	-0.54013014
124	0x3e9468bc	0.28986156
125	0xbe439a61	-0.1910186
126	0x3e48734a	0.1957523
127	0x3e9b5e16	0.3034522
128	0x3ea36fb2	0.31921154
129	0x3d0a1197	0.03370818
130	0x3e84b8c0	0.25922203
131	0xbeb211f2	-0.34779316
132	0xbe684c51	-0.22685362
133	0xbef5f05b	-0.4803494
134	0x3e99ba9f	0.30025193
135	0xbdd16cc8	-0.102258265
136	0xbf1e63c6	-0.6187099
137	0xbe8bf58a	-0.2733577
138	0x3d6b2806	0.057411216
139	0x3f167c93	0.58783835
140	0xbe5c2822	-0.21499684
141	0x3f2fade2	0.686247
142	0xbf08121b	-0.53152627
143	0xbefffad9	-0.4999607
144	0xbe299683	-0.16561322
145	0x3e581281	0.21100809
146	0xbf023cbe	-0.50873935
147	0x3f4e6229	0.8061853
148	0xbef43ad3	-0.4770113
149	0x3e6d5984	0.23178679
150	0x3ee267ca	0.4421981
151	0x3e6b6c45	0.2299052
152	0xbe8919e0	-0.26777554
153	0x3f133503	0.57502764
154	0xbe797c81	-0.243639
155	0xbf13d1dc	-0.57742095
156	0xbea3714d	-0.3192238
157	0xbea3c8df	-0.3198919
158	0x3ebb52f8	0.36586738
159	0x3df787dd	0.12086461
160	0x3eeef8e9	0.46674278
161	0x3f1d65b4	0.6148331
162	0x3e3a1dcd	0.1817543
163	0x3f1580e7	0.58399814
164	0xbf563823	-0.8367941
165	0x3f352f1c	0.7077501
166	0xbf25537c	-0.6458051
167	0xbf2f1f34	-0.6840699
168	0x3f9b4f04	1.2133489
169	0xbe8a221f	-0.26979157
170	0x3f27960c	0.6546333
171	0x3ee79712	0.45232445
172	0xbe830f5f	-0.25597665
173	0xbeba2f79	-0.36364344
174	0x3f4558f6	0.7708887
175	0xbf144a64	-0.5792601
176	0x3f6b16d6	0.9183172
177	0x3e3dbcdf	0.1852908
178	0x3f42cc16	0.7609266
179	0x3f14b25c	0.58084655
180	0xbe9f59c7	-0.31123182
181	0xbf1921b9	-0.5981708
182	0x3e72dff3	0.23718242
183	0x3f546546	0.8296703
184	0x3f030b9a	0.5118958
185	0x3c8c7c02	0.017148975
186	0x3ee73ed0	0.4516511
187	0x3f722bef	0.9459829
188	0x3e62efc7	0.2216178
189	0x3f7143e6	0.9424423
190	0x3e011f6d	0.12609644
191	0xbe360d09	-0.1777841
192	0x3d77d18e	0.06050258
193	0x3e2423a6	0.16029224
194	0x3eaeb6fe	0.34123987
195	0xbf1d73fd	-0.6150511
196	0x3e65bfc0	0.22436428
197	0xbdd9c8de	-0.106340155
198	0x3f7996a9	0.97495514
199	0x3f11eb42	0.569996
200	0xbe8a1e39	-0.26976183
201	0x3f56dc25	0.83929664
202	0x3f0b4f49	0.54417855
203	0x3e19db61	0.15025093
204	0xbe73231e	-0.23743865
205	0xbef2fa44	-0.47456563
206	0xbeca1aee	-0.3947367
207	0x3f4c559a	0.7981812
208	0x3e822ab7	0.25423214
209	0x3ef3a7c3	0.4758893
210	0xbe2d99ca	-0.16953197
211	0xbf2b1361	-0.66826445
212	0xbf0655b4	-0.5247452
213	0x3f32e805	0.69885284
214	0x3f195500	0.59895325
215	0x3e7db820	0.2477727
216	0x3f2ae2ad	0.6675213
217	0xbf307cb4	-0.6894028
218	0xbec94b98	-0.39315486
219	0xbf16255a	-0.58650744
220	0xbed79cd7	-0.42111847
221	0xbe6cbd1e	-0.23119017
222	0x3efdc4b9	0.4956415
223	0xbf080a93	-0.53141135
224	0x3f17ff3c	0.5937383
225	0xbf2b94e5	-0.6702407
226	0x3eebf9b3	0.46088943
227	0x3ee41ff8	0.4455564
228	0x3f5cec6a	0.8629824
229	0xbe88233b	-0.2658938
230	0x3f19168f	0.59800047
231	0x3f9abb89	1.2088481
232	0xbede0192	-0.43360573
233	0xbea301f7	-0.31837437
234	0x3f021d14	0.5082562
235	0xbd56bfa3	-0.052428853
236	0xbefb0a33	-0.4903122
237	0xbee69bf2	-0.45040852
238	0x3ed1e74b	0.40996775
239	0x3ec9a8ae	0.39386505
240	0xbeeacfae	-0.45861572
241	0x3f48dc7d	0.7846144
242	0x3f0265bc	0.50936484
243	0x3e015c3e	0.12632844
244	0x3eb99802	0.36248785
245	0x3f8054ed	1.0025917
246	0x3df5ae95	0.119961895
247	0x3e8ae296	0.27125996
248	0x3f52c364	0.8232939
249	0xbf52ef21	-0.8239613
250	0x3f29e43b	0.6636388
251	0xbf05733f	-0.52128977
252	0x3e3a21a8	0.18176901
253	0x3eaed9f4	0.3415066
254	0x3f1b539a	0.6067444
255	0xbec6c9ed	-0.38825932

l1.bias f4 [8]
0	0x3f8e36c8	1.1110468
1	0x3f8e5928	1.1120958
2	0x3f9e701f	1.2377967
3	0x3f361f26	0.7114128
4	0x3f8e0115	1.109408
5	0x3f173b34	0.5907471
6	0x3eca4097	0.39502403
7	0x3f0a66b9	0.5406299

l2.weight f4 [8, 8]
0	0xbf03df7c	-0.51512885
1	0x3e08178c	0.13290232
2	0xbf257629	-0.64633423
3	0x3f36c4b8	0.7139392
4	0x400b6735	2.1781743
5	0x3f5fd67e	0.87436664
6	0x3f361d74	0.7113869
7	0x3fa9e099	1.3271667
8	0xbcce6150	-0.025192887
9	0xbeb491a6	-0.3526737
10	0xbddbb860	-0.10728526
11	0xbd9995d4	-0.074992806
12	0x3d8133bc	0.06308696
13	0xbd88cd4c	-0.06679782
14	0xbddb0b34	-0.10695496
15	0x3cfcbf70	0.030853003
16	0x3fe0daf2	1.7566817
17	0xbf5d97eb	-0.86559933
18	0x3e2ea048	0.1705333
19	0x3fb3afc3	1.4038013
20	0xbfa5d633	-1.2955993
21	0xbef76944	-0.483225
22	0xbf29df98	-0.663568
23	0x3e40d353	0.18830614
24	0xbe191d6a	-0.14952627
25	0xbcd20a10	-0.025639564
26	0xbde2a12a	-0.11065896
27	0xbcbea710	-0.023273021
28	0xbd47a920	-0.048745275
29	0x3dae52f0	0.08511913
30	0x3c4ca520	0.012490541
31	0xbe5be4ed	-0.21474047
32	0x3f577d3d	0.84175473
33	0x3ffe20ed	1.9853798
34	0x401a92f9	2.4152205
35	0xbf8c3570	-1.0953808
36	0x3fb501d2	1.414118
37	0xbe07a17d	-0.13245197
38	0xbeca55cc	-0.39518583
39	0xbeb9d13a	-0.3629244
40	0xbfc9f420	-1.5777626
41	0x3f8a2a0f	1.0794085
42	0x3e60ccb4	0.21953088
43	0xbecad1f9	-0.3961332
44	0xbe0ee00f	-0.13952659
45	0x3f8a2d23	1.0795025
46	0x3f987430	1.1910458
47	0x3f635a9e	0.88810146
48	0xbf230c45	-0.63690597
49	0xbf08816d	-0.5332249
50	0x3f4581b4	0.77151036
51	0x3f8ac14f	1.0840243
52	0xbf58b3a0	-0.84649086
53	0x3fc0e333	1.5069336
54	0x3e103517	0.14082752
55	0x3ea01117	0.3126304
56	0xbf5de3f4	-0.86675954
57	0x3f9cfbf9	1.2264396
58	0x3f8213af	1.0162257
59	0xbf71c54a	-0.94441664
60	0xbf890495	-1.0704523
61	0x3f400289	0.7500387
62	0x3fbdfb44	1.4842305
63	0x3fcd7d95	1.605395

l2.bias f4 [8]
0	0x3e9a8645	0.30180565
1	0xbe0fe337	-0.1405152
2	0x3f1afcce	0.60542
3	0xbe09e2f5	-0.13465483
4	0x3f8fa123	1.122105
5	0x3dafad47	0.08577972
6	0x3e7ecf8f	0.24883865
7	0xbc04e97c	-0.008112308

l3.weight f4 [13, 8]
0	0xbffe079a	-1.984607
1	0xbe9cde58	-0.30638385
2	0xbfdf1cc9	-1.743066
3	0x3e7d6ba6	0.24748096
4	0x3f186461	0.59528166
5	0xbdc09ed8	-0.09405297
6	0xbf42eda6	-0.7614387
7	0x3f258e17	0.64669937
8	0xbf1059e8	-0.56387186
9	0x3e996fb7	0.29968044
10	0x3f6d2b08	0.92643785
11	0x3e84ef11	0.25963643
12	0xbfb38f4e	-1.4028108
13	0xbed7e440	-0.42166328
14	0xbf373698	-0.7156768
15	0xbf3f401a	-0.74707186
16	0xbfc6f845	-1.5544516
17	0x3d10a470	0.03531307
18	0x3f3fe903	0.7496492
19	0xbe1436eb	-0.14474075
20	0x3eb5ba46	0.35493678
21	0xbed00290	-0.40626955
22	0xc01b5ad1	-2.427418
23	0xbfc31e44	-1.5243611
24	0xbfca757b	-1.5817102
25	0xbe8495b2	-0.25895458
26	0x3eaf62cb	0.3425506
27	0x3e6f6f02	0.2338219
28	0xbe07dffe	-0.1326904
29	0xbea8cab1	-0.3296714
30	0x3eb50f9d	0.35363474
31	0xbfa6186b	-1.2976202
32	0x3e842af2	0.25814015
33	0xbcc83110	-0.024437457
34	0xbf967503	-1.1754459
35	0xbeab783c	-0.3349017
36	0x3ed0b065	0.40759578
37	0x3e0b3a4c	0.13596457
38	0xc00c4f5d	-2.192344
39	0x3e3f95d9	0.18709506
40	0x3f3f9500	0.7483673
41	0x3e0a08de	0.13479945
42	0xc0038fbb	-2.0556476
43	0x3d1825a8	0.037145287
44	0x3f5b76d4	0.8572819
45	0xbfa97cbb	-1.324119
46	0xbfa60e5c	-1.2973132
47	0xbfdf00b6	-1.7422092
48	0xbf09fdfe	-0.53903186
49	0x3d6724a0	0.056431413
50	0xbfd7dec1	-1.6864854
51	0xbcc981a0	-0.024597943
52	0xbd86d5a1	-0.06583715
53	0x3f22cb1a	0.6359116
54	0xbd6b3a62	-0.057428725
55	0x3ef86519	0.4851463
56	0x3e6020e2	0.21887544
57	0x3dcfe9b8	0.10152
58	0xbfd29804	-1.6452641
59	0xbeae772f	-0.34075305
60	0xbfbe4253	-1.486399
61	0x3e28a132	0.16467741
62	0x3f382112	0.7192546
63	0x3e7cb0ad	0.24676771
64	0x3f24f6c8	0.6443906
65	0xbdb00b74	-0.085959345
66	0xbf73f05a	-0.9528862
67	0x3e9b9c8f	0.30392882
68	0xbefcf46d	-0.49405232
69	0x3ee7525d	0.45180026
70	0xbfbaaa2c	-1.4583182
71	0x3ea79e42	0.3273793
72	0x3f6638f1	0.89930636
73	0x3e136dc4	0.14397341
74	0xbfefe16e	-1.8740671
75	0xbdf72aec	-0.120687336
76	0xbea384e9	-0.3193734
77	0x3d8a8ef7	0.0676555
78	0x3ddc3d85	0.107539214
79	0xbf5196e4	-0.81870866
80	0xbdafd6fb	-0.08585926
81	0xbe8405ea	-0.25785762
82	0xbf002c83	-0.5006792
83	0xbb8f71c0	-0.0043775737
84	0xbe8e5c7a	-0.2780493
85	0xbe2c4429	-0.16822876
86	0x3e7f284e	0.24917719
87	0x3e658128	0.2241255
88	0xbfd85bae	-1.6902978
89	0xbd262658	-0.04056391
90	0xbf1414b7	-0.5784411
91	0xbe1f24b0	-0.15541339
92	0x3f87fd93	1.062426
93	0xbefc544e	-0.4928307
94	0xbfff33e5	-1.9937712
95	0xbf373835	-0.7157014
96	0x3f056491	0.5210658
97	0xbdcf3880	-0.101181984
98	0xbc6aff39	-0.014343076
99	0x3df2c26c	0.11853489
100	0xbfb01f99	-1.3759643
101	0xbf10c468	-0.5654969
102	0x3e916400	0.28396606
103	0xbfa566d0	-1.2922001

l3.bias f4 [13]
0	0xbcfc845d	-0.030824834
1	0x3ea04119	0.31299666
2	0xbba97d93	-0.0051724403
3	0x3e8b4e7e	0.27208322
4	0xbde21403	-0.11038973
5	0x3ef8e255	0.48610178
6	0xbec98685	-0.39360443
7	0x3ccdf3da	0.025140692
8	0xbea2b006	-0.3177492
9	0xbea105fa	-0.31449872
10	0xbd133f2f	-0.03594893
11	0x3e1c7540	0.15279102
12	0x3e40532d	0.18781729
